lstm_model.pth (torch, 80425 bytes, 6 tensors)

lstm.weight_ih_l0 f4 [256, 10]
00000000: 5105 273e a800 c83d 5afc 8c3d 1728 1b3e
00000010: ce46 1b3d 0e0e b0bc 478d 013e 15c1 4dbc
00000020: 4262 783d a0b4 873d 8020 d8b8 4f30 8f3d
00000030: c393 553c 5462 1bbd 4a40 61bd 80a4 24be
00000040: bc5b de3c 3f5f b4bd 9f2f bcbd c042 b63d
00000050: 4b7a b2bd 4e15 873d d6ae 27bd 76c1 4c3d
00000060: 04bb 223e 8de3 2cbd 1641 3f3d f167 013e
00000070: 1afe 193e e236 bebc a4c6 e83d fab6 ae3e
00000080: 00b4 1ebd 3048 0b3d 4827 573e 2f3d 143d
00000090: 1ba4 433e f5d2 7fbc 1968 3a3d 2189 e03d
000000a0: db06 8a3c 2636 143d f2bb 3d3e e29b 153e
000000b0: e507 a83d f920 e83d 8417 f13c 60af 1fbc
000000c0: 3e65 a53d 3b3a d1bd ac4e 52bd acb4 d33d
000000d0: d101 db3d d230 0fbd 587b eabb 94e1 a4bd
000000e0: c396 b93c cf27 073d a24b a8bd 9f40 46bd
000000f0: cdfa 193c cae0 2cbd e5c8 d1bd acb7 1dbe
00000100: 69fc 143e 57c8 0dbe 0637 543e 849f 0dbe
00000110: 04fb 4bbd 4989 2fbd 53a0 4f3d 2f8b 96bd
00000120: e543 033e ca0a b73d 4855 203e 9d57 973d
00000130: 0590 633b b829 5bbd d9cb 8dbd d89c 223e
00000140: 6521 33bc 197c 333e 69dc 01be 61bf 19be
00000150: 4d40 bd3d 59d0 91bd f104 b9bd cc5f 2dbe
00000160: 7fe0 91bd d052 c7bd 4645 6abd 6739 27bd
00000170: 952e 173c 383b 4fbd 3139 093e beb9 1cbd
00000180: ad2c c83d e584 f73d f91e d13d 30bf 8cbc
00000190: 3483 b9bd c730 07be d6bd 74bd 0812 623d
000001a0: 9d2f 473c f2fb 32be 459e aa3d 0d52 02bb
000001b0: 11db 593d 89ec 8a3d d5ee bdbd 10ba e93b
000001c0: f822 e73d b1e5 cbbd 97e1 8b3c d8c4 d9bd
000001d0: 55c5 5dbd 298d 6bbd 059d 92bd dc4f 863d
000001e0: 5f4b 8bbd 0a94 7cbc aa91 673d 0eb2 a63b
000001f0: 569e 2abd 2e72 0bbe 4398 b03d 424c b1bd
00000200: 6418 9bbd dbd2 f43d 8124 0e3d 830e 8cbd
00000210: be26 3a3c 157b 21bc bf6b 1abd 94bb 373d
00000220: 3450 f03b dab6 f4bd 1f9e bdbd b533 993d
00000230: 560d c2bd 6010 a1bd 3cca 8cbc 2d46 90bd
00000240: 552e 88bb 4a29 2fbe 42b2 07bc c3c5 f33b
00000250: 0cc8 eabd eeb7 0f3e 0af2 093e adae 2bbd
00000260: d61c 0e3d 66f3 eb3c 6420 3cbd 412c 243d
00000270: 8eaa 083e 327d 3e3d 9274 d83d ac7e 8c3d
00000280: 279a 0bbe bcaf b93d d411 bcbd a72f 943c
00000290: da9a a73b 8088 46be 5f18 db3d 567f 37be
000002a0: ad55 cebd f826 303e 7908 9ebd 82f9 fdbc
000002b0: 40cc 69b9 da79 883c 2f83 8c3c b992 383b
000002c0: a5de cc3d 78e3 bc3b 1feb 603d 832d e53c
000002d0: 9dfd 9b3d a32a 213e 1653 17bd 617e 9bbd
000002e0: 643b 143e 9ca4 ad3d 4f0c 92bc be31 0a3e
000002f0: 34ba 853d bb4f 523d f2b9 b1bd ac9a 6d3d
00000300: ffae f03d 67e5 a13b febf 483d 7200 aabd
00000310: f5bb 133e 0eff 0f3e b048 86bd 10e4 143e
00000320: 754a db3d c17e b53d a68c 543c f5de 4fbd
00000330: 5e15 063e 0d96 70bd 7fee 023e 7a48 953c
00000340: fbdb ba3d dccc 013e 2ea6 ca3d 7b45 993d
00000350: a0cf 763d a1ea 793c 81b8 293c 6172 9f3c
00000360: 76e0 e93c c0e9 8e3c ba0f 3ebd 0add 403d
00000370: ce2c 783d 8c81 20be 71cf 8cbc 0b55 653d
00000380: 6290 86bd 5afe 823a 16f6 883d 501a cdbd
00000390: 3bc0 a9bd cad5 b43d 85ee 463e 74d5 a23e
000003a0: e7c2 5cbb ee25 56bd ab49 bc3c 3c9a 9c3e
000003b0: 4c2b b33e 9a7f 2b3d fa84 c13c ef86 9f3e
000003c0: 5dd2 983d de1c b5bc 895a 213e 79b1 b33d
000003d0: 08c7 8c3d 4dae d6bc 2733 aabc f351 d03d
000003e0: f629 e63d 0abf c9bc 0a51 803d adc5 d8bd
000003f0: 5d39 0a3e ed7e 07bd 5d03 e63d 4dbd 083c
0.16310622 0.0976575 0.0688407 0.15152012 0.03790932 -0.021491077 0.1265155 -0.012558241
0.06064058 0.06626248 -0.00010305736 0.06991636 0.013035717 -0.03793557 -0.05499295 -0.16078377
0.027143352 -0.08807229 -0.091887705 0.0889945 -0.08714732 0.065958604 -0.04093822 0.049989186
0.15891653 -0.042209197 0.04669293 0.12637307 0.15038338 -0.02321953 0.11366013 0.34123975
-0.03874588 0.03400439 0.21011078 0.03619116 0.1910557 -0.015614261 0.04550943 0.10963655
0.016848972 0.036184452 0.18528727 0.14610246 0.08204631 0.11334414 0.029430158 -0.0097464025
0.08075951 -0.10216185 -0.05134456 0.10337195 0.10693706 -0.034958668 -0.007155817 -0.08050838
0.022654897 0.03299695 -0.08217551 -0.04840147 0.0093981745 -0.042206563 -0.10243396 -0.15402097
0.14549412 -0.13845955 0.20724115 -0.13830382 -0.049799934 -0.042855535 0.050690006 -0.07350766
0.12818868 0.08937605 0.15657532 0.07389758 0.0034723294 -0.053506583 -0.069236465 0.15880144
-0.010933255 0.17527808 -0.12681736 -0.15014412 0.0924078 -0.07119817 -0.090341456 -0.16931075
-0.07122897 -0.09732592 -0.05719497 -0.040826228 0.009227415 -0.050593585 0.13400723 -0.038263075
0.09774146 0.120858945 0.10210986 -0.017181009 -0.09058228 -0.13202201 -0.059751354 0.055192977
0.012157348 -0.17478922 0.08330969 -0.0019885332 0.053187434 0.06783397 -0.09274069 0.007132776
0.11285967 -0.099559195 0.017075343 -0.10633248 -0.05414327 -0.057507668 -0.07158855 0.06558201
-0.06801485 -0.015416155 0.0565354 0.0050871437 -0.041654907 -0.13617775 0.086227916 -0.08657123
-0.075730115 0.1195428 0.03470278 -0.068387054 0.011361776 -0.009856005 -0.03770041 0.044856623
0.0073337797 -0.11948939 -0.09258675 0.074805655 -0.094752 -0.078644514 -0.017186277 -0.07044635
-0.004155914 -0.17105594 -0.008282246 0.0074393465 -0.11463937 0.14035007 0.13471237 -0.04191463
0.03469547 0.028802585 -0.045929328 0.040081266 0.13346311 0.046506114 0.10569109 0.06860098
-0.13633023 0.09066722 -0.09183088 0.018089129 0.0051148953 -0.19388008 0.10698008 -0.17919669
-0.10074935 0.17202365 -0.0771646 -0.031002764 -0.000222967 0.016659666 0.017152397 0.0028163625
0.100034036 0.005764421 0.05491173 0.027975803 0.07616732 0.15738921 -0.03694447 -0.07592464
0.1447578 0.08478662 -0.017828135 0.13495538 0.06529656 0.05134557 -0.086780444 0.058008835
0.11752128 0.004940677 0.049011223 -0.08300866 0.14427169 0.1406214 -0.06556833 0.14540124
0.10707561 0.08862067 0.012972986 -0.050749738 0.13094088 -0.05873685 0.12786292 0.018223036
0.09123989 0.12675804 0.098949775 0.074839555 0.0602566 0.015253694 0.010358931 0.01946372
0.028549414 0.017445445 -0.046401717 0.0470858 0.060589604 -0.15674418 -0.01718876 0.055989306
-0.065705076 0.0009994016 0.06687562 -0.10014784 -0.08288618 0.088298395 0.19426925 0.31803477
-0.0033685507 -0.052282266 0.022984346 0.3058642 0.3499397 0.041869737 0.023622978 0.31157634
0.074619986 -0.022108492 0.15757193 0.087740846 0.068739 -0.02620616 -0.020776344 0.101718806
0.11238472 -0.024627227 0.06265457 -0.10584579 0.13498445 -0.03308003 0.1123111 0.008345914

lstm.weight_hh_l0 f4 [256, 64]
00000000: deb7 00be 6824 893d bfe0 86bd 7c94 553d
00000010: 3bed ee3d 27e2 173e 266d a9bd 0456 93bd
00000020: 3453 7e3d 8caa 153d 5dca e63d 3659 bdbd
00000030: 656f 5d3d e373 303d 5f06 d03c f572 2d3d
00000040: 0a15 9fbd fbe8 043d ee27 0c3e b98e 793b
00000050: cd61 923d 63ea c63c c7d9 11be fd30 f6bc
00000060: bc5d 16be 808c b1bc b95a 5dba c864 f93d
00000070: ee53 14be 7075 0b3a 1bd0 883d 2513 023d
00000080: 34dd 97bd 45d0 2abd df8d 733c 78bb bbbd
00000090: 5583 873d ba0a 033e d853 193e 70c7 d9bd
000000a0: 1b1e 0cbd e447 6a3d 9e21 7ebd ef92 203d
000000b0: 37f5 563d f047 363d 7e01 50bd f993 4a3d
000000c0: ae79 2e3e 721e bb3d 40c9 f13c 6739 2c3e
000000d0: ca43 553d b915 073c b012 7cbc 5646 4dbd
000000e0: f674 9ebd a977 c3bd 30f3 13be 878a 493d
000000f0: 56aa e3bc a3ae 1a3e 0656 acbd 5742 fd3d
00000100: ec66 963d 9ca5 dfbd f09b 53bd 4eee a13c
00000110: a196 80bc 442c 26bd ba5d 68bd a072 023e
00000120: f812 d0bd 3cab ab3d 2f52 f8bd cf91 e13d
00000130: e2fd 8e3d d53a a63d 2928 77bd 63ff 413d
00000140: e574 8d3a f28a cf3b 9e16 b63d 21cc ae3d
00000150: 2fd7 82bd bf8e f33d 4914 ed3d c246 01be
00000160: 91fc 173c c78b 6b3c eeee aebd 17ce be3d
00000170: 0265 11bc b7d4 abbd 26aa 00bd 2c19 143e
00000180: 1c39 0bbc 48b2 0bbe 7fa0 bcbc b4bb f4bd
00000190: 4b61 babd 055a f8bd 7e41 b33b cb22 82bc
000001a0: 68a6 20bd 1cc3 fbbc af3e e0bd f623 17bd
000001b0: 6983 ce3c 8296 493d a51c debd 36bb 563d
000001c0: 0739 a2bd 473a a2bd 7b29 2ebb cadb 14bd
000001d0: 6389 d8bd 6473 eebc f27a fc3c aa19 a1bd
000001e0: 4497 943d d97b a23d b9b3 ce3b 430a 40bc
000001f0: 3b61 7abd 2d0e 923d ac50 a9bd 9633 38bd
00000200: 40ae f7bc 7792 acbd 9119 aa3a 0a48 853d
00000210: 43ce 163e c21a 053e 2688 9d3d 51b1 a1bd
00000220: 3d12 22bd 7f9d cf3d 59cd 143e 5d94 703d
00000230: 4242 0b3e a252 a2bd 3bba e73d 1375 3e3d
00000240: fece 82bd 1c0d cdbb 9ff6 123e 1c78 07be
00000250: 6538 9b3d 67ee 813d 5c71 08bd 82a5 03bd
00000260: 7c99 03be a583 2cbc 8486 963c a726 aa3c
00000270: 9940 7dbd 2bd8 fd3d 9291 4bbd 5a65 f4bb
00000280: 8c9b 843d d66d 073e bfe2 27be 9e02 b33d
00000290: e03c 0c3e a8af 83bc 20ff 383e a57d 7fbc
000002a0: b4a8 72bc 077a c8bd a41c 023e a14d 053e
000002b0: 9dad 983c 2902 c8bd 8bbe e3bd f04d aebd
000002c0: b183 393e bbe2 e63d 314e 14be bfad f43c
000002d0: bbc3 0fbd 568a 62bd 748d d2bb fd13 473d
000002e0: 7a9d 03bd 91e0 13be 3fb8 25be 7d69 79bb
000002f0: b3aa 053e ffcf c23d f6d1 ecbd 1de1 c33d
00000300: a5ec e3bd be70 2d3d 246b 8cbd 591f c53d
00000310: 66d2 8fbd 2bb0 c9bd 554c 7c3d 5cbd 483d
00000320: 1efe c5bd dc12 23bd 115d d13d b4f5 12be
00000330: d4db fc3d 0345 6dbb eeae 633d b347 a53c
00000340: 17aa ff3d 6a41 d73d de48 b53d e686 bf3d
00000350: 3074 193e 8626 06bc b860 ba3d ae7f 833d
00000360: 4cbf e2bd f002 89bd 81f0 013d 7e48 c1bd
00000370: 370d 183c f9ae 8fbb 8b76 d6bd 412b 3ebd
00000380: c1e1 133d 5990 b43d 2757 673c 349a 90bd
00000390: d2e7 01bd 5ba6 773d 3300 5cbd c73b 2abc
000003a0: 5582 7dbd 94ce 853d 4575 ad3c 7018 cfbd
000003b0: c3c0 293d 02ba b03c 2c74 1b3d 0a67 173e
000003c0: 8bad 683d 95d5 bbbd a493 803d 0fb1 bb3c
000003d0: 5d3b e53c da5c a4bd 7242 d23d 0e01 c2bd
000003e0: 7597 b9bd fc47 803d 85e3 0cbe 2cb1 bebd
000003f0: ab5a a5bc 6bde ae3d e0ef 98bd 2e6d 973c
-0.1257014 0.06696397 -0.06585836 0.05214356 0.11666342 0.14832364 -0.082727715 -0.071941406
0.062091067 0.0365396 0.112690665 -0.09245531 0.054061312 0.04307927 0.025393663 0.04234596
-0.07767685 0.03244875 0.13687107 0.0038079454 0.0714756 0.024281686 -0.14243232 -0.030052656
-0.14684194 -0.021673441 -0.00084439997 0.121774256 -0.14485142 0.0005319929 0.06680318 0.03175654
-0.07415238 -0.041702528 0.014865368 -0.09166616 0.066168465 0.1279706 0.1497339 -0.10633743
-0.0342084 0.057197466 -0.06204378 0.039202627 0.05247995 0.0445022 -0.050782673 0.049457524
0.17038605 0.09136666 0.029514909 0.16818772 0.0520666 0.008244925 -0.015385315 -0.050115906
-0.07737152 -0.09544308 -0.14448237 0.049204376 -0.027791183 0.15105681 -0.08414845 0.12366169
0.073438495 -0.10920259 -0.051662385 0.019766953 -0.015696825 -0.04056956 -0.05673001 0.12739038
-0.10159868 0.0838227 -0.1212505 0.11014139 0.06982018 0.0811669 -0.060341034 0.047362696
0.0010792284 0.0063337022 0.08891033 0.08535028 -0.06388699 0.11892461 0.11576135 -0.12624648
0.009276525 0.014376587 -0.08541666 0.09316652 -0.00887418 -0.083901815 -0.031412266 0.14462727
-0.008497503 -0.13642228 -0.02302575 -0.11949864 -0.091005884 -0.12126545 0.0054704538 -0.015885731
-0.039221197 -0.030732684 -0.10949456 -0.03689953 0.025209146 0.0492158 -0.10845307 0.052424632
-0.07921033 -0.07921272 -0.0026575017 -0.03634242 -0.105730794 -0.029107757 0.030820344 -0.07866223
0.07255414 0.07933778 0.0063080457 -0.011721197 -0.061127882 0.0713161 -0.0826734 -0.04497107
-0.030234456 -0.084263735 0.001297759 0.06507881 0.1472712 0.12998489 0.07691984 -0.078951485
-0.039568175 0.10137462 0.14531459 0.05873524 0.13599494 -0.07925917 0.113148175 0.04649837
-0.06387137 -0.0062576663 0.14351891 -0.13229412 0.07579116 0.063443 -0.033311233 -0.032140262
-0.12851518 -0.010529433 0.018374689 0.020770384 -0.061829183 0.123947464 -0.049699374 -0.007458371
0.06474981 0.13225493 -0.1639509 0.087407336 0.13695097 -0.01607497 0.18066072 -0.015593921
-0.01481073 -0.097889 0.12706238 0.13017894 0.018637473 -0.09766037 -0.111203276 -0.08510959
0.18116643 0.11273714 -0.14482953 0.029868005 -0.035098772 -0.05530771 -0.006425554 0.048603047
-0.032132603 -0.14441134 -0.16183566 -0.003805726 0.13053398 0.09512328 -0.11563484 0.09564421
-0.11129121 0.042343847 -0.06856373 0.0962512 -0.07022552 -0.098480545 0.061596233 0.049008712
-0.0966761 -0.039812908 0.10222829 -0.14351541 0.123466164 -0.0036204464 0.055586748 0.02017579
0.12483614 0.105105236 0.08851789 0.09351902 0.14985728 -0.008187896 0.09100479 0.06420837
-0.11071643 -0.066900134 0.031723503 -0.09437655 0.009280494 -0.004384872 -0.10471829 -0.04642797
0.036103968 0.08816595 0.0141199 -0.07060662 -0.03171522 0.060461383 -0.053711127 -0.010390229
-0.061891872 0.06533542 0.021174083 -0.10112083 0.041443598 0.02157307 0.037952587 0.147854
0.05680613 -0.09171597 0.0627816 0.022911577 0.027982408 -0.080255225 0.1026658 -0.094728574
-0.09062091 0.0626373 -0.13758667 -0.093111366 -0.020184835 0.085385166 -0.074676275 0.018484678

lstm.bias_ih_l0 f4 [256]
00000000: 4bae eebc c040 413c 4321 263e 7b3a 563d
00000010: 2689 803d 4ba6 8f3d dbf7 ca3d 8f9f b9bc
00000020: 784b 16bd 5323 ff3d 3422 083d c7f3 103e
00000030: b430 fc3d 4a8e f0bd af0e 40bd 98ce bb3c
00000040: 7400 42bd bc9a 29bd a415 b0bc f1e1 7abd
00000050: b6e6 093e b858 2d3d e068 26bd 5c13 9d3d
00000060: 96f0 273d a991 143e b71b f13d cf20 f9bd
00000070: 70af 98bd 9053 c7bd 5b53 f2bb d67a 163e
00000080: 4b9f 6a3d 25be 66bd ff85 2a3e 0537 9dbc
00000090: b444 283e 892a b03d 33d7 8a3d 07e0 2e3e
000000a0: baed 043e 31bf d7bd 6452 1c3d 6958 2a3e
000000b0: a317 e43c 7dbf 1cbd 8027 843d be24 45bb
000000c0: 056f a83d f7c4 003e 7b82 753c 49f5 99bb
000000d0: b084 003e 937d b63c ef1a 27bd 8d8e d73d
000000e0: c5b7 043e 9891 1f3e fbe8 94bd 71bb 97ba
000000f0: 8e3b 4dbd eb33 f03c ff2e 603d dde3 a03c
00000100: 07c9 123e c91b 3f3d 547a 8bbc ad3e 39bc
00000110: a952 8a3b 41e0 76bd 6874 43bd e5a6 89bc
00000120: f86d cbbd 33b2 3e3d 2002 90bd 12ce da3d
00000130: 5b63 b53c 879a 8c3c 842c 0b3e 1933 36bd
00000140: 2cbf 93bc b260 043e 79d5 0bbd 5a1f 213d
00000150: f7e3 293e f9be a8bd 9b26 6e3d b83e 13bd
00000160: d12c 1e3e 841b 2c3e 2219 b83d 2b8d 9cbd
00000170: 1865 943c fcde 04bd 92c0 cabc 82f1 2ebd
00000180: 4fc8 3b3c 4920 933d 7d52 ae3d 1173 91bd
00000190: 9357 fa3d 1b9b 653d 41f5 5ebd 17f7 86bd
000001a0: 59ad bcbc c202 3ebd 0822 c1bc 358b df3d
000001b0: 242a 743d b50c 3abc e1ae f73d 1725 103c
000001c0: f466 97bc 5587 5dbd db71 233e 7f47 2a3e
000001d0: 08f3 7f3d b5dd 223d e90e 583d e629 c13d
000001e0: 42aa 41bc d4b1 723d effd 04bd 8a8d bcbd
000001f0: 0160 943d bf4c a03d 510b adbc edb7 90bd
00000200: 924d 06be da60 623b 0896 b1bd b4e1 193d
00000210: f55c 5dbd 6269 d0bc 7fd2 6e3c e48e 1cbe
00000220: 63f2 f0bb b733 adbd 764a d73d 4c89 05bc
00000230: 378e ef3d 731b 3dbd ffc0 9d3c 9c3b ce3d
00000240: 2e3c a6bd 9842 573d dce8 9a3d 7c6d 0abe
00000250: d672 913d 610f f73d 78ff 9abd 8e78 803a
00000260: 9c3f ecbd 4ffe fdbd 7403 01be 1bf1 bcbd
00000270: 1921 923d 6784 78bd 1152 923c a8cf 3b3d
00000280: 0ae8 08be 47b9 743d 942f d7bc fd51 203d
00000290: 0296 253e 57fa 193e f36d ed3d 3f4a 0abe
000002a0: ba57 253e f0f1 45bd f2fd f93d 6647 dbbd
000002b0: daf4 383c edd3 10be 3d61 c0bd f8fc 24bd
000002c0: 22b1 b93d 6771 77bd 3899 153d a98e 173e
000002d0: c09a ec3d 0bce afbd 7e9f 553d f832 0f3e
000002e0: 0e6b ca3d 5bdc 27bd bf48 653d 7cd2 f13d
000002f0: 9716 debc 13ec db3d 5b23 32bd 1518 42bd
00000300: 803b b93d b265 bdbd 1561 49bd da4e aabd
00000310: d464 053e d461 01bc baa6 df3d 290f a33c
00000320: dd07 d7bc 5406 a2bd 86c7 bebd 222a 793d
00000330: b1b0 55bb d489 37bc d58b c83d 3d59 c63d
00000340: 5b0b 09be fcda 60bd 6d55 d3bd 6ff6 083e
00000350: 4dab 66bd 2e44 1aba 6475 203d 0e65 3a3e
00000360: dcdc 0d3c 68cb 2a3b b7d0 21bd 4d6d d1bd
00000370: 4396 353d 5f03 1fbd b89e 03bd 6141 0f3e
00000380: 6e9a 2abd 65c1 1e3d bcc2 61bd b20e 343d
00000390: c523 103c b953 d33d 3605 543d 750e 71bd
000003a0: 6876 b6bc a9a0 06be 01ec bebc f6f4 163e
000003b0: 5d0c 943d 782e 93bd 8d7b 96bc 37f3 cbbd
000003c0: cdd1 ef3d b8cf 8abd 0193 31bd 0b3d 96bd
000003d0: 04bd e83b 47ea 1ebd 94a2 0a3b 251b 5ebc
000003e0: 5c64 8abd afeb 81bd 2230 c9bd 9126 063e
000003f0: 4a87 97bc 4bbf 5c3c 7792 52bd 6b4a e4bd
-0.029135844 0.011795223 0.16223626 0.052301865 0.06276159 0.0701414 0.09910556 -0.022659091
-0.036693066 0.124579094 0.033235744 0.14155494 0.12313977 -0.117458895 -0.046889003 0.02292566
-0.047363713 -0.04140733 -0.021494694 -0.06125063 0.13466915 0.042320937 -0.04062736 0.07669708
0.041000925 0.1450869 0.11772864 -0.12164461 -0.07455337 -0.09732735 -0.0073951907 0.14695296
0.05728082 -0.05633368 0.16652678 -0.019191274 0.16432458 0.08601863 0.06779327 0.17077647
0.1298131 -0.10534514 0.03816451 0.16635288 0.027843302 -0.038268555 0.064528465 -0.0030081715
0.082243 0.12575136 0.014984722 -0.0046984297 0.12550616 0.022276675 -0.04079717 0.10525236
0.12960728 0.15582883 -0.07271 -0.0011576248 -0.050105624 0.029321631 0.05473232 0.019639904
0.14334498 0.046657357 -0.017026104 -0.011306447 0.0042212796 -0.06027246 -0.047718436 -0.016803214
-0.09933084 0.046556663 -0.07031655 0.10683836 0.022142103 0.017163528 0.135912 -0.044482324
-0.018035494 0.12927511 -0.03413913 0.03933654 0.16590868 -0.0823955 0.058142286 -0.035948485
0.15446784 0.16807371 0.08989169 -0.07644113 0.018114612 -0.032439217 -0.024750028 -0.04271079
0.0114613315 0.07183892 0.08511827 -0.07102025 0.12223735 0.056056123 -0.05443311 -0.065900974
-0.023031877 -0.04638935 -0.023575798 0.109152235 0.0596105 -0.011355569 0.120939024 0.008797905
-0.018481709 -0.05408414 0.15961401 0.16628836 0.062487632 0.039762218 0.052748594 0.094318196
-0.011820378 0.05925162 -0.032468732 -0.09206684 0.07244874 0.07827138 -0.02112356 -0.07066331
-0.13115528 0.0034542591 -0.08671194 0.037568763 -0.05404373 -0.025440875 0.014576553 -0.15288883
-0.0073531135 -0.084571294 0.10512249 -0.00815041 0.11697047 -0.046168756 0.019257067 0.10069963
-0.08116947 0.052553743 0.07563946 -0.13518327 0.07101981 0.1206348 -0.07568258 0.0009801553
-0.1153557 -0.12402021 -0.12598974 -0.09225675 0.07135219 -0.060673144 0.017861398 0.045852333
-0.13369766 0.059747007 -0.026267804 0.03914069 0.16170505 0.15036903 0.11593237 -0.13504885
0.16146746 -0.048326433 0.12206639 -0.107069775 0.011288846 -0.14143343 -0.09393547 -0.040280312
0.090669885 -0.060410883 0.036523074 0.14800514 0.11552954 -0.085842215 0.052154057 0.13984287
0.098837 -0.04098163 0.05597758 0.11807725 -0.027110381 0.10738387 -0.04349075 -0.047386248
0.09044552 -0.092479125 -0.04916485 -0.08315821 0.13026744 -0.007896859 0.109204724 0.01990469
-0.026248867 -0.07911363 -0.093154 0.060831197 -0.0032606537 -0.011202294 0.09792296 0.096849896
-0.13383238 -0.05489634 -0.10319028 0.13375257 -0.05631571 -0.00058847934 0.039174452 0.18202612
0.008658614 0.002606118 -0.039505687 -0.102259256 0.044332754 -0.038821574 -0.032133788 0.13989784
-0.041651182 0.038758654 -0.055117354 0.043959327 0.008797591 0.10318703 0.051762782 -0.058851678
-0.022273257 -0.13147224 -0.023305895 0.14741883 0.072289206 -0.071865976 -0.01836946 -0.09958499
0.11709938 -0.067779005 -0.043353084 -0.07335862 0.0071026105 -0.038797643 0.0021154033 -0.013556276
-0.06757423 -0.06343781 -0.09823634 0.1310065 -0.018497128 0.013473342 -0.05140921 -0.111470066

lstm.bias_hh_l0 f4 [256]
00000000: 3e43 b93d 37cb 14bc 8585 cb3d 1b92 fd3d
00000010: f2c1 3a3e 26a9 163e efb7 e93d aeef 18bd
00000020: 6769 e83c 6a58 703d 735a 6dbd 67d1 26bd
00000030: 1a2c 8fbd 87c5 203c 93ec 96bd 705f 9b3c
00000040: 0a92 843d 14c5 b9bd 802e 033c 0d3b bf3d
00000050: 7372 de3d 89ee 86bd ee4a 143c 780f 553e
00000060: 8d22 42bd 2faa 123e 6408 d23d c9a8 aebc
00000070: 5282 633b 1894 af3d f439 9bbd 21de ec3c
00000080: c812 b63c bd87 e23d f08f 4cbd cd4c 103e
00000090: 183e 143e fa2b 753b 68c9 d03d 68ea 213e
000000a0: 0979 a53d 5f74 aa3c 7133 5a3d 610d 6b3e
000000b0: c75c 04bd ea24 0abd 58b0 113e dde4 ea3d
000000c0: cb0e 253e 3971 c63d 4816 35bd 994d 3abd
000000d0: 67f8 7d3d c0a1 cd3b 85cf c1bc 4405 bc3b
000000e0: 390e 1b3d 5339 db3d e0c5 903d dcac d43d
000000f0: 90d6 e63d 569c 58bc 0ab5 123e 9f6e 313d
00000100: 3733 db3d e74b d1bd 3187 bd3c 6740 cabd
00000110: e8ee cdbd 6db7 4dbd 6b39 a2bd 2a68 663d
00000120: 3d79 16be e715 b7bc 4d7a 39bd 58b4 613d
00000130: b914 a6bd 3965 183c 5d0e 1c3d 9468 c33d
00000140: 43b0 51bd 1bb6 d83d 124c 6a3d 7fb7 c13d
00000150: 3334 163e 1b5a 73bc 9469 233e 8128 a5bd
00000160: e571 5c3c b480 103d fce2 c53d ae84 a43d
00000170: 2eac 9ebd bcb5 5c3d c9ff 9e3d cd87 8a3d
00000180: 250b 183c 1b18 ae3d 7ef8 bc3d e98e 2ebc
00000190: d3b7 a1bb d50c 193e c8ac 04bd dfc0 0f3d
000001a0: 5275 a63a 305e f6bd a1c4 9b3c e35f 1fbd
000001b0: f76f 0a3d ab9f db3d 4cea 0f3e 7178 a7bd
000001c0: b95b 103d 8557 f83d 5a0d 21bd 9ba9 883d
000001d0: 97d5 9ebc 0f6b ed3d a1d8 ba3d ac98 bdbd
000001e0: b4f6 6dbd 6189 0cbb 3dcc 123e 5774 b8bc
000001f0: 4d67 95bd 1350 533d 1882 613c f573 0a3d
00000200: 82f6 9e3d 53a9 373d 310f 23bd 3257 a03d
00000210: cb72 0fbd 56d8 053e e56f 0b3e 628e 15bc
00000220: 8b85 403d c0eb 9b3d 7579 44bd a568 96bc
00000230: a8d0 b93d 9bd4 603d ecd7 1b3e f249 843d
00000240: 4ca2 a9bd e745 993d b930 23bd 66e3 f6bd
00000250: 3987 41bd 27ed c63c 447d 1abe 752b a6bd
00000260: 6485 e5bd 0d12 dcbb 497a a2bd 7b02 fc3d
00000270: 8b92 dabd 8ce4 803d f7dc 853a c582 9fbd
00000280: 522d 4fbc 0fe0 17bd ea51 8ebd ae50 b2bb
00000290: 7036 293d 5c36 9c3c 730f 193e 4a5e 0abe
000002a0: 6f18 de3d 486b 04be 0058 17bd be1e bd3d
000002b0: 1bc0 aabc 1af7 d7bd f12c 22be b75d dc3d
000002c0: 438b 28bd 758f 003e 648a 0abe bbc4 103e
000002d0: ec17 ff3d 005b 993d d926 bb3d a5f6 9bbc
000002e0: da22 0cbd e942 83bd 4103 79bc 6b42 dc3b
000002f0: 3920 9c3d 9ac3 923d a9d8 c3bd 5a7e f03d
00000300: 2cca 1fbd a7d4 04bd e275 a03c 7421 073d
00000310: 6bda b13d 9c60 3cbc a2b4 723d 0cd5 d53d
00000320: 2d57 b63d 931b 65bc 4889 393d aab6 943d
00000330: 1880 39bd 327e eebd 9968 913d 3ff1 cb3d
00000340: 841d efbd 1649 843d 1360 82bd d8f2 ce3c
00000350: 9abb c4bd d498 513d 8b56 08bd 2ce0 c63d
00000360: 551d 45bd 191d fb3d 7d83 aa3d 7c2d 793d
00000370: b7d4 693d 95fb 6dbd 8a9a b7bd 2fb6 b4bd
00000380: 8cac a3bc 4229 00bc 8d9c a5bc 2b7c d73d
00000390: 945c 093e abdd 8b3b c39d b9bd 0c65 a7bd
000003a0: 84aa 003e 5f5a babd 5023 89bd b8b2 0e3e
000003b0: 75fa 36bd 5cd4 5c3d 0ee1 563d f31d 06be
000003c0: 23e8 99bc 95c5 0e3e 5549 0ebd b129 efbb
000003d0: 14e8 b2bb 2bd6 953c 91e8 f83d 31a4 b7bd
000003e0: 993a 963d d6f1 193e 278a f63d e778 823d
000003f0: 355d bbbd a5e2 abbd 2b14 24bd b3dd 81bc
0.090460286 -0.009081653 0.09937576 0.12381383 0.18238047 0.14712963 0.11412036 -0.03733795
0.028370572 0.05867807 -0.057947587 -0.040727045 -0.069908336 0.009812719 -0.07369342 0.018966407
0.06473167 -0.09070793 0.008006692 0.09337435 0.10861673 -0.06588466 0.009051068 0.20806682
-0.04739623 0.14322732 0.10255507 -0.021320717 0.0034715128 0.085731685 -0.07579413 0.028914513
0.022225752 0.11061046 -0.049941957 0.14091797 0.14476812 0.0037410245 0.10194665 0.15812075
0.08079726 0.020807443 0.053271715 0.22954322 -0.032315042 -0.03372661 0.14227426 0.114694335
0.16118924 0.09689564 -0.044210702 -0.04548416 0.062004473 0.0062753856 -0.023658523 0.0057379324
0.03785536 0.10704293 0.07068992 0.10384533 0.11271393 -0.013220867 0.14326873 0.043318387
0.10703128 -0.10219555 0.023135753 -0.09875565 -0.100553334 -0.050223757 -0.07921108 0.056251682
-0.14694686 -0.022349311 -0.04528265 0.05510363 -0.08109421 0.009301477 0.038099635 0.09541431
-0.051193487 0.10581609 0.057201453 0.09458827 0.1466835 -0.014853026 0.15958244 -0.08064366
0.013454889 0.03527899 0.096624345 0.08033119 -0.077476844 0.053884253 0.07763631 0.06764183
0.009280001 0.085006915 0.092270836 -0.01065419 -0.0049352436 0.14946301 -0.03239134 0.035096046
0.0012699759 -0.120296836 0.019014658 -0.038909804 0.033798184 0.107238136 0.14054221 -0.08177269
0.035243724 0.12126068 -0.039319374 0.06672975 -0.019388957 0.115926854 0.0912335 -0.092576355
-0.058096603 -0.002144419 0.14335723 -0.022516413 -0.07295094 0.051590037 0.013763927 0.03380199
0.077618614 0.044839215 -0.03980941 0.07829131 -0.035021584 0.13070807 0.13616903 -0.009128185
0.047002356 0.07613325 -0.047967393 -0.018360445 0.09073001 0.054890256 0.15219086 0.064594164
-0.08282909 0.07484036 -0.039841387 -0.120550916 -0.0472481 0.024283005 -0.15086848 -0.081137575
-0.11207083 -0.006716019 -0.0793348 0.123051606 -0.10672482 0.06293592 0.0010212947 -0.07788614
-0.012645083 -0.037078913 -0.069492176 -0.0054417467 0.04131168 0.01906889 0.149473 -0.13512531
0.10844504 -0.1293155 -0.036949158 0.09234379 -0.020843556 -0.10545178 -0.15837456 0.10760062
-0.041148435 0.12554725 -0.13529354 0.14137547 0.124557346 0.0748806 0.09138269 -0.019038508
-0.034212925 -0.064092465 -0.01519853 0.006721785 0.076233335 0.07166214 -0.09562809 0.1174285
-0.039011165 -0.032429364 0.01958746 0.032990888 0.08684238 -0.011497643 0.059254296 0.10441026
0.08903346 -0.013983625 0.045296937 0.07261403 -0.045288175 -0.116451636 0.071000285 0.099581234
-0.116755515 0.064592525 -0.06365981 0.025262281 -0.09606095 0.05117114 -0.03328566 0.09710726
-0.048123676 0.12261409 0.08325861 0.060834393 0.057087626 -0.058101255 -0.08965023 -0.08823811
-0.019979738 -0.007822337 -0.02021625 0.1052173 0.13414222 0.0042683682 -0.09063294 -0.0817357
0.12565047 -0.09099268 -0.066961884 0.13935363 -0.04467245 0.05391346 0.052460723 -0.13097362
-0.01878745 0.13942559 -0.034737904 -0.007298671 -0.005459795 0.0182906 0.121537335 -0.08966864
0.07335395 0.1503366 0.12038069 0.063707165 -0.09148637 -0.083928384 -0.040058296 -0.015852785

fc.weight f4 [2, 64]
00000000: 228c 60bd dae0 033e 29b6 13be 8515 e0bd
00000010: 0ece e5bd f066 553d ff72 023e 96e9 223b
00000020: 543e d6bb 6952 e03d 7dc6 4abc 01ee 88bd
00000030: 85ee a63d 9d71 bfbd 5f99 4b3d acef 063e
00000040: 57cf 9a3d 72b1 083b dce6 c83d 6a3b a1bd
00000050: 4c46 b33d 9975 eb3d 62b8 233d 47f7 be3c
00000060: 4a60 19be c775 06be e65b c6bd 88a8 ba3d
00000070: 0bc7 ecbd bb42 d43d ced6 11bd 4373 bebd
00000080: d3cd 05be 6c80 d1bd e315 73bd 6b2b 013e
00000090: 3fef 1b3e 6a60 1e3e 6ae4 da3c a7d9 13be
000000a0: 550f 1a3e 7e10 4abd 4189 00bd a639 51be
000000b0: fe6b 9e3c e2ee 8fbd e89e 2a3c 1643 063e
000000c0: 4bb2 8f3d cd6c ca3d 174d ab3d 3657 c93d
000000d0: a2ec e73d bc70 76bd 552f 93b9 6bc2 4c3c
000000e0: 4f10 e33c a337 40bc 103b 3ebc ce20 bfbd
000000f0: 4ef2 b83d c91e 0fbd 616d 8ebd 3ba0 df3a
00000100: 7488 143e 8599 3d3d 77f8 f83d 1198 413d
00000110: 0d2b 90bd 060f df3b 61a0 06be 109c 7f3d
00000120: 6725 b7bd 3a6b 173c befd 8dbd 0fcf 1c3e
00000130: 16e7 ab3c 471c a83c fd74 0cbd 97b8 6dbd
00000140: 0601 f0bd 8b0d 533d eb10 c73d 435d 0c3e
00000150: cfa2 57bc 1fc6 853c f1b1 f23d 90d5 19be
00000160: 6fcb 023e 5b8c 193e 8063 5fbc 7fc0 ffbd
00000170: 9e24 043e 8e9f a9bd 317e 553d 9ab1 cc3d
00000180: 1c91 e83d 5978 b2bd 3ad5 283e 13c8 6bbc
00000190: 7008 b0bd 509f 123a cbea bfbd 01a6 c43d
000001a0: 84b1 15be 0281 19bd 038e 08be fb34 363c
000001b0: 5600 d83d 790b 333d 35b3 db3d 19bc 183d
000001c0: dd16 91bd b279 00be f746 113e 81e7 6bbd
000001d0: b6f7 a6bd 81c8 1a3e de2b dcbd cdf8 01be
000001e0: cc82 d2bd 36ad 063e 9900 fd3d 5bfb 183e
000001f0: 50da 133d 7efe df3c f6ad d13c d523 7ebd
-0.05482114 0.12878743 -0.14424957 -0.109416045 -0.112209424 0.052100122 0.1273918 0.0024858466
-0.006538192 0.109532185 -0.012376425 -0.06686021 0.08150963 -0.09347842 0.049706813 0.13177365
0.07559078 0.0020857719 0.09809658 -0.078726605 0.087536424 0.11497039 0.039970763 0.02331127
-0.14978138 -0.13130866 -0.09685497 0.09114176 -0.11561402 0.1036429 -0.035605244 -0.09299328
-0.13066797 -0.10229573 -0.059347045 0.12614219 0.15227984 0.15466467 0.026720244 -0.14438497
0.15044911 -0.049332134 -0.031380896 -0.20432147 0.019338604 -0.07027985 0.010413863 0.13111529
0.070164286 0.09884033 0.08364313 0.09831087 0.11324431 -0.060166106 -0.0002807329 0.012497525
0.027717737 -0.011732015 -0.011610761 -0.09332429 0.09030591 -0.03494147 -0.06954456 0.0017061302
0.14505178 0.046288986 0.12156766 0.047264162 -0.07039461 0.006807211 -0.13147117 0.062404692
-0.08942681 0.009241873 -0.06933163 0.15313362 0.020984214 0.020521296 -0.034291256 -0.058037367
-0.11718945 0.051526587 0.09720024 0.13707452 -0.013161375 0.016329823 0.11850346 -0.15022874
0.12772916 0.14994948 -0.0136345625 -0.124878876 0.12904593 -0.08282386 0.0521223 0.09994812
0.113558024 -0.08714361 0.1648759 -0.014390963 -0.08595359 0.00055931974 -0.09370955 0.09601975
-0.14618498 -0.037476547 -0.13335423 0.01112103 0.10546939 0.043712113 0.107275404 0.03728876
-0.07084439 -0.12546423 0.14187227 -0.057593826 -0.08152716 0.15115549 -0.107505545 -0.12692566
-0.10278854 0.13152012 0.123536296 0.14939635 0.03609687 0.027343031 0.025595646 -0.06204589

fc.bias f4 [2]
00000000: 5ac5 cc3d 254b 573d
0.09998579 0.052561898
